extensions/functions/tensorFlowGeneral/etc/sin_model.tflite (tflite, 7104 bytes, 5 tensors)

sequential/dense/MatMul/ReadVariableOp/resource/transpose f4 [30, 1]
000000 dd 7c 3a 40 ea 37 9f bc 2c 74 ef bf 15 c9 e4 3f
       2.913871 -0.019435842 -1.8707328 1.7873865
000010 0e 3e 34 c0 4a 51 9b 3f c3 68 34 bf 57 cd 02 40
       -2.8162875 1.2134182 -0.70472354 2.043783
000020 13 d5 44 bf fe ba 2b bf 41 3b 19 40 90 4f a6 3f
       -0.76887625 -0.670822 2.3942416 1.299303
000030 11 46 b6 be ff de 1a c0 e7 ca fd bf ae e3 2e bf
       -0.3560033 -2.4198606 -1.9827546 -0.6831616
000040 68 ac fe 3f a5 23 92 bf e7 1f 96 3f 88 f6 f0 bf
       1.9896364 -1.1417128 1.1728486 -1.8825235
000050 d6 ee c2 bf 2d ad 2e c0 19 1b d2 bf 13 9b 4e 3f
       -1.5229137 -2.7293198 -1.641452 0.80705374
000060 a1 8d 1a 40 65 25 21 40 02 c3 65 bf 49 05 50 be
       2.4148943 2.5179074 -0.89750683 -0.20314516
000070 82 b3 12 40 88 da 03 c0
       2.2922063 -2.060213

sequential/dense/MatMul_bias f4 [30]
000000 22 41 24 c0 7c f8 83 bf 98 88 7c bf 27 bf 82 bf
       -2.5664754 -1.0310206 -0.98645926 -1.0214585
000010 64 7b 33 c0 ad a0 35 c0 4f f8 ab bf 50 c1 c0 bf
       -2.8044062 -2.8379319 -1.3435153 -1.5058994
000020 8c b4 c4 bf 76 29 9e bf c2 ae f4 bf ee dc 50 c0
       -1.5367599 -1.2356403 -1.9115832 -3.2634845
000030 ff c2 b4 bf 1a 2b 08 c0 25 13 83 bf d0 1d 6e bf
       -1.4122008 -2.1276307 -1.0240217 -0.9301424
000040 4b 5f b5 c0 d9 48 31 c0 46 a9 9b bf 61 db 41 bf
       -5.6678824 -2.7700713 -1.2161033 -0.7572537
000050 53 73 78 c0 c8 ed 2d c0 85 c6 85 c0 e7 f2 f2 bf
       -3.8820388 -2.717638 -4.1804833 -1.8980378
000060 04 9b df bf 77 a5 ff bf 75 1b 09 c0 9a 90 65 bf
       -1.7469182 -1.9972371 -2.1423008 -0.8967377
000070 8d 29 db bf 41 ca 83 bf
       -1.7122055 -1.0296098

sequential/dense_1/MatMul/ReadVariableOp/resource/transpose f4 [40, 30]
000000 57 4f 3d bf a9 a9 34 bf 03 17 68 bf 0d fb 1e bf
       -0.7394919 -0.7057138 -0.90660113 -0.62101823
000010 df a5 50 bf b5 41 38 bf f5 45 51 bf c7 4b 28 bf
       -0.815031 -0.7197526 -0.8174737 -0.6574063
000020 ee 0d 3b bf 86 88 5f bf bd cd 5c bf e5 11 f1 be
       -0.7306813 -0.87317693 -0.8625143 -0.47083965
000030 16 51 2c bf d0 e6 17 bf a1 5b 71 bf 2c b9 2d bf
       -0.6731123 -0.59336567 -0.9428044 -0.67860675
000040 3a e9 68 bf 07 c9 37 bf 02 bb 96 be da 8f 49 bf
       -0.90980875 -0.7179112 -0.2943955 -0.78735125
000050 d5 34 c6 be d4 37 74 bf 03 11 60 bf 93 98 69 bf
       -0.38712183 -0.95397687 -0.8752596 -0.91248435
000060 bf 15 9d be df 87 02 bf c6 b6 28 bf 2f 7f 5d bf
       -0.30680653 -0.5098857 -0.6590389 -0.8652219
000070 f4 f7 3b bf 66 63 33 bf 81 85 8a bf 63 4c 84 bf
       -0.7342522 -0.70073545 -1.0821992 -1.0335811
000080 64 df 74 bf 49 a9 22 bf ab b7 52 bf 95 14 94 bf
       -0.9565337 -0.6353956 -0.82311505 -1.1568781
000090 3d 5b 52 bf 87 5f 32 bf 74 96 46 bf b5 1e 83 bf
       -0.8217047 -0.69677013 -0.77573323 -1.0243746
0000a0 e0 25 99 bf a5 e5 63 bf 1f e1 5f bf 80 d0 86 bf
       -1.1964684 -0.89022285 -0.8745288 -1.0532379
0000b0 b6 9c 8e bf 33 53 88 bf 79 80 71 bf f2 ba 30 bf
       -1.1141574 -1.065039 -0.9433666 -0.69035256
0000c0 bb 7b 8a bf 7e 1d 1f bf 46 f7 44 bf 10 4a 61 bf
       -1.081901 -0.62154377 -0.7693981 -0.88003635
0000d0 48 bf 59 bf b0 99 6b bf db 12 56 bf a2 68 6c bf
       -0.850575 -0.92031384 -0.8362252 -0.92347157
0000e0 78 ed 63 bf 6d 40 77 bf 8e a8 2c bf 02 c7 8e bf
       -0.89034224 -0.9658268 -0.67444694 -1.1154482
0000f0 62 c1 15 bf e7 6d 25 bf 7f 91 07 bf b3 fd 9a be
       -0.58498204 -0.6462082 -0.52956384 -0.30271682
000100 bc 15 1d bf 4c 61 0a bf 34 08 1e bf c8 3f cb be
       -0.6136129 -0.54054713 -0.61731267 -0.396971
000110 66 44 31 be 25 52 1a bf cc 82 06 bf 48 56 da be
       -0.17311248 -0.6028159 -0.5254333 -0.42643952
000120 38 40 d8 be 93 c8 eb be f0 e6 a4 be 09 8d 00 bf
       -0.42236495 -0.46051463 -0.3220744 -0.502152
000130 c7 58 14 bf 39 8f 30 bf 84 41 a9 be e1 d0 f2 be
       -0.57947963 -0.6896854 -0.33057797 -0.47424987
000140 6c c1 ad be 86 ff 01 bf bd 70 19 be 15 88 01 bf
       -0.33936632 -0.5078052 -0.14984412 -0.5059827
000150 f8 5a 37 bf de 7d a2 be da 05 bf be ae e8 34 bf
       -0.7162318 -0.31736654 -0.37309152 -0.7066754
000160 db 6e d4 be 02 0a c6 be 76 04 9b be a3 0a b1 be
       -0.41490826 -0.3867951 -0.3027684 -0.34578428
000170 d6 90 2e bf a8 29 aa be b4 78 e9 be 01 c0 d3 be
       -0.6818975 -0.33234906 -0.45599902 -0.41357425
000180 20 dd f0 be 57 52 14 bf 71 15 3e bf 55 1d 63 be
       -0.47043705 -0.5793814 -0.74251467 -0.22179158
000190 33 e4 4d be 50 63 80 be 52 0c f9 be a7 42 57 bf
       -0.20106582 -0.2507577 -0.48642212 -0.8408608
0001a0 8c 78 49 bf 4d dd 29 bf be 6d 24 bf e7 42 42 bf
       -0.78699565 -0.66353303 -0.64229953 -0.75883335
0001b0 e4 5c 14 bf f3 8e 5c bf 06 fd 5e bf 6e 75 5e bf
       -0.5795424 -0.86155623 -0.87104833 -0.86897933
0001c0 0d 10 46 bf 03 53 b4 be 3a 20 39 be 03 2e 3b be
       -0.7736824 -0.35219583 -0.180787 -0.18279271
0001d0 d9 68 21 bf ad 77 54 bf c1 18 e6 be 19 95 45 bf
       -0.6305061 -0.8299511 -0.4494076 -0.7718063
0001e0 3a 6c 45 bf 7a 64 34 bf 0a a5 4a bf c5 e9 42 bf
       -0.77118266 -0.70465815 -0.7915808 -0.76137954
0001f0 7f 6d 64 bf 7c 7f 28 bf 9f 21 38 bf 42 f6 fc be
       -0.8922958 -0.65819526 -0.719263 -0.4940663
000200 6a aa fe be 05 5d 29 bf b1 cb e2 be 7f d2 14 bf
       -0.4973939 -0.6615756 -0.4429603 -0.5813369
000210 76 85 e8 be 88 db 6f bf 2f c6 6b bf c0 80 41 bf
       -0.45414323 -0.93694353 -0.9209928 -0.7558708
000220 a1 6b 3b bf 92 37 f1 be 2d 4e 3d bf 4d 67 48 bf
       -0.73211104 -0.4711271 -0.7394741 -0.78282624
000230 ad c0 33 bf e0 99 11 bf eb f5 02 bf a5 0f 44 bf
       -0.70215875 -0.5687542 -0.5115649 -0.7658637
000240 f8 3f 8b be d0 f3 f9 be 2b 2a 2a bf 53 c6 16 bf
       -0.27197242 -0.48818827 -0.66470593 -0.5889637
000250 77 b2 0e bf c8 02 0c bf c1 00 1e bf 2a b8 78 bf
       -0.55741066 -0.54691744 -0.617199 -0.9715601
000260 7b b1 34 bf 7e 0d 6d bf b4 c8 2e bf 49 bc 6b bf
       -0.70583314 -0.9259871 -0.68275 -0.92084175
000270 18 91 6f bf 9a 81 80 bf b2 05 d4 be cc f6 00 bf
       -0.9358077 -1.0039551 -0.41410595 -0.5037658
000280 f1 89 40 bf a6 e8 3e bf 14 2f 1b bf f0 86 39 bf
       -0.7521048 -0.74573743 -0.6061871 -0.72471523
000290 09 4f 47 bf 54 58 26 bf 04 ba 5d bf ac 41 52 bf
       -0.77854973 -0.6497853 -0.8661196 -0.8213146
0002a0 2b f0 22 bf c4 9e a4 be 06 3d 35 bf ce de 4d bf
       -0.6364772 -0.3215238 -0.7079624 -0.804181
0002b0 69 64 4e bf 11 b6 40 bf 8d 74 50 bf b9 56 7c bf
       -0.80621964 -0.7527781 -0.8142784 -0.9856983
0002c0 92 c7 6e bf f0 d0 60 bf eb 61 7d bf 05 2d b6 be
       -0.9327327 -0.87818813 -0.98977536 -0.35581222
0002d0 ae 4f 85 bf f5 82 1c bf b2 32 ef be 29 fa 1e bf
       -1.0414941 -0.61137325 -0.46718365 -0.62100464
0002e0 c4 44 15 bf 54 9a 3c bf ac 79 77 bf 53 98 4e bf
       -0.58308053 -0.73672986 -0.9667003 -0.8070118
0002f0 f4 46 0c bf 22 b5 68 bf 28 46 8d bf 4c 61 2a bf
       -0.54795766 -0.90901387 -1.1037035 -0.66554713
000300 97 1a 29 bf 10 fa 20 bf 40 e8 3b bf 8f e5 4e bf
       -0.660562 -0.62881565 -0.7340126 -0.8081903
000310 b3 38 50 bf ad 7b 46 bf 4f b1 51 bf 9d a9 45 bf
       -0.81336516 -0.77532464 -0.81911176 -0.77211934
000320 1e 4e 8e bf 1c 4f 68 bf 95 6f 60 bf 48 41 57 bf
       -1.111759 -0.9074571 -0.8767026 -0.84083986
000330 76 7d 7e bf 3b b9 2f bf 3a be 82 bf e7 c1 67 bf
       -0.9941019 -0.68642014 -1.0214303 -0.90530246
000340 44 a2 22 bf 89 4c 08 bf f0 5e 22 bf 00 92 11 bf
       -0.6352885 -0.53241783 -0.63426113 -0.56863403
000350 28 dd 16 bf 45 df c7 be e9 96 1b bf a0 3a 0e be
       -0.5893121 -0.3903753 -0.60777146 -0.13889551
000360 7a 23 11 bf 40 8e be be 0e 4a a0 be ec e9 f4 be
       -0.5669476 -0.37217903 -0.313065 -0.47834718
000370 b7 db 05 bf 9c 0f 7a be 4c 19 f6 be 5f db 08 bf
       -0.52288383 -0.24420017 -0.48066175 -0.53459734
000380 9c 2e 54 bf e8 c8 25 bf b1 49 33 bf 1a c7 ab be
       -0.8288362 -0.64759684 -0.7003432 -0.3355034
000390 db 91 ac be 19 e7 ee be 93 87 d5 be 6a fe 59 bf
       -0.3370503 -0.4666069 -0.41704997 -0.8515383
0003a0 4d 5c b8 be ca da 5f be e3 81 36 be 5a b1 c1 bd
       -0.3600792 -0.21860805 -0.17822985 -0.09457655
0003b0 e2 ac d6 be e1 9d 23 bf 17 52 27 bf 8b e4 e2 be
       -0.41928774 -0.6391278 -0.65359634 -0.4431499
0003c0 7d e4 9b be a0 8e bd be 8a 9a 11 be fa 25 ed be
       -0.3044776 -0.37022877 -0.14219108 -0.46318036
0003d0 49 da 32 bf 84 71 6f be 88 a6 a7 be af af a1 bd
       -0.69864327 -0.23383147 -0.3274424 -0.07894837
0003e0 0f eb ee be b7 35 0e bf 05 81 da be ca 10 aa be
       -0.4666371 -0.5555071 -0.4267656 -0.33215934
0003f0 2d 2e e4 be 23 59 a1 be ad 28 bd be 22 75 02 bf
       -0.4456648 -0.31513318 -0.36945096 -0.5095998

sequential/dense_1/MatMul_bias f4 [40]
000000 bc 0f 27 bf aa b5 5c bf 7d 3c d1 be c1 b7 0f bf
       -0.65258384 -0.862147 -0.4086646 -0.5613976
000010 d6 65 25 bf 64 d8 27 bf d4 e8 43 bf f1 13 fc be
       -0.64608514 -0.6556456 -0.7652714 -0.49233964
000020 13 a2 e1 be 23 26 eb be fa 3d f3 3e 55 50 66 be
       -0.44068965 -0.45927534 0.47508222 -0.22491582
000030 10 2e 58 be ea b2 63 bf c3 80 7f be 61 1d 05 bf
       -0.21111321 -0.88944876 -0.24951462 -0.51997954
000040 da 84 9f be 59 30 d1 be 36 a5 c6 be 39 8a 14 bf
       -0.31156045 -0.408572 -0.3879792 -0.5802341
000050 8e f3 5f be 69 47 80 bf 08 59 bd bd 62 b3 3d bf
       -0.21870252 -1.0021793 -0.09245497 -0.7410184
000060 71 15 08 bf 99 1f 20 bf 30 51 45 bf 1c a4 3f bf
       -0.53157717 -0.62548214 -0.7707701 -0.74859786
000070 c5 c1 d9 be 45 61 97 be 48 cd c2 3d 41 32 f0 bd
       -0.42530647 -0.29566398 0.095118105 -0.11728335
000080 a6 b6 5e bf 5f 6f 25 bf d3 39 5b bf 3c 06 e1 bd
       -0.8699745 -0.64623064 -0.8563511 -0.10987517
000090 d6 69 a8 be 83 e7 43 bf 7c e6 10 3c 82 cd 08 3f
       -0.32893246 -0.76525134 0.008844014 0.5343858

sequential/dense_2/MatMul/ReadVariableOp/resource/transpose f4 [1, 40]
000000 9b 3d bb be 6d 70 da 3e ad 5c 82 3e 8d 5a 3e be
       -0.3657044 0.426639 0.2546133 -0.1858923
000010 64 ae bb be d2 33 d3 3e 5d bc e0 3e 42 09 59 be
       -0.36656487 0.41250473 0.4389371 -0.21194938
000020 cb 26 c2 bd 72 69 4a be 11 71 86 bf 51 66 19 be
       -0.094800554 -0.19766787 -1.0503255 -0.14980437
000030 dc 73 1c 3e 5c c3 e5 3e 87 d3 de bd 35 33 77 be
       0.15278572 0.4487561 -0.108801894 -0.24140628
000040 24 9b 70 3e d8 63 b7 bd b0 85 75 3e 9c 43 90 be
       0.23496681 -0.089545906 0.23976779 -0.28176582
000050 73 ec 89 bd c1 02 94 3e 3a f5 72 be 9e cc d2 3e
       -0.06734552 0.2890835 -0.23726359 0.41171736
000060 66 bf 4c be 31 fc 7a be a0 5b ab be a5 ee ae 3e
       -0.19994888 -0.24510266 -0.33468342 0.34166446
000070 06 da b1 bc cf ce 42 3e 6e 74 9c 3e e3 e6 77 be
       -0.021710407 0.19024204 0.3055758 -0.2420917
000080 f4 9e e9 3e a2 2d aa be 15 3c 9c 3e a0 64 81 3c
       0.45629084 -0.3323794 0.3051459 0.015795052
000090 cf fb 41 3e 80 66 7f be 49 7b cc be 24 bc 2b 3f
       0.18943714 -0.24941444 -0.3993781 0.67083955
