extensions/functions/dependencies/tensorflow/models/xor_model.tflite (tflite, 1312 bytes, 3 tensors)

dense/MatMul_bias f4 [8]
0	0xbe78fed4	-0.24315959
1	0x3e7440db	0.23852865
2	0x3e10b48b	0.14131372
3	0x3d138047	0.036011007
4	0x3f568c54	0.83807874
5	0xbf47275d	-0.7779444
6	0xbe245a63	-0.16050105
7	0xbeecea98	-0.4627273

dense/kernel/transpose f4 [8, 2]
0	0x3f7a80cc	0.9785278
1	0xbffa1301	-1.953705
2	0xbe23b25a	-0.15986004
3	0xbe9309c8	-0.287184
4	0xbef84b3c	-0.484949
5	0x3d1406b7	0.036139216
6	0x3f0ffe8d	0.5624779
7	0xbfcd2aa6	-1.602864
8	0x40370174	2.8594637
9	0xc0039277	-2.0558145
10	0x402ad50c	2.6692533
11	0x40282880	2.627472
12	0xbeebf56d	-0.46085683
13	0x3fcd73a4	1.6050916
14	0x3f3e26d5	0.74278
15	0x3dc1203f	0.094299786

dense_1/kernel/transpose f4 [1, 8]
0	0x3fe71e06	1.8056037
1	0x3ed29bf5	0.4113461
2	0x3e98cd22	0.29844004
3	0x3fb45714	1.4089074
4	0xc05c7978	-3.4449139
5	0x4074edee	3.827022
6	0xbfb29cf0	-1.3954144
7	0xbf2eae8b	-0.6823508
