extensions/functions/tensorflow/tensorFlowGeneral/etc/fizzbuzz_model.tflite (tflite, 4492 bytes, 4 tensors)

sequential/dense/MatMul/ReadVariableOp/resource/transpose f4 [64, 7]
0	0x3fb28c62	1.3949091
1	0xbf1b7520	-0.60725594
2	0x3fce93d7	1.6138867
3	0x3f0cdb5f	0.55022234
4	0x3fc5d831	1.5456601
5	0xbf69a9a9	-0.91274506
6	0xbf876d08	-1.0580149
7	0xbe13341a	-0.14375344
8	0xbf667877	-0.90027565
9	0xbff7b66c	-1.9352546
10	0x401050ef	2.2549398
11	0xbfba6437	-1.4561833
12	0xbf2b79b1	-0.6698256
13	0xc00c1b53	-2.1891677
14	0xbf002ad5	-0.50065356
15	0x3f21908e	0.631112
16	0xbe842678	-0.258106
17	0x3f8ffcf7	1.1249074
18	0xbedbabae	-0.4290442
19	0xbebd9dda	-0.37034494
20	0xbd480231	-0.048830215
21	0xbf98151a	-1.188144
22	0x3f3e040e	0.74224937
23	0x3eb02286	0.3440134
24	0x3fbc202a	1.4697316
25	0xbf948bd5	-1.1605173
26	0x3f30468d	0.6885765
27	0x3f556530	0.83357525
28	0xbff8aac4	-1.9427114
29	0x400c00bd	2.187545
30	0xbff9ca46	-1.9514854
31	0x400e3432	2.2219357
32	0xbff923e6	-1.946408
33	0x400fa380	2.2443542
34	0xbff88992	-1.9416983
35	0x3e68cd03	0.22734456
36	0xbdf574c1	-0.1198516
37	0xbda86388	-0.08222109
38	0x3e158a4d	0.14603539
39	0xbec37ee1	-0.38182738
40	0xbcdcf596	-0.026972573
41	0x3ceeb78b	0.029140254
42	0x3edad83c	0.427431
43	0xbebee4ad	-0.3728384
44	0xbed02b99	-0.40658262
45	0x3ebf95c6	0.37418956
46	0x3ec65460	0.38736248
47	0x3f65e0f3	0.8979637
48	0x3e8a1b63	0.2697402
49	0x3f44ba23	0.7684652
50	0xbf2c3b74	-0.6727822
51	0x3f599801	0.84997565
52	0xbeee7357	-0.46572372
53	0x3f37772c	0.71666217
54	0xbebe4fd4	-0.3717028
55	0xbf10b384	-0.5652392
56	0xbe1f4b59	-0.15556087
57	0xbeed7fd0	-0.46386576
58	0x3f0f31ff	0.55935663
59	0x3e001325	0.12507303
60	0xbcf59641	-0.029978873
61	0xbf0d17ef	-0.55114645
62	0xbe7adc15	-0.24498017
63	0x3f8a567f	1.0807647
64	0x4006994d	2.1031067
65	0xbf6b53ba	-0.9192463
66	0xbfebbdb7	-1.8417271
67	0x3f985e8e	1.1903856
68	0xc008015f	-2.1250837
69	0xbf54fd38	-0.8319888
70	0x3f7caa13	0.9869701
71	0xbe282dc6	-0.16423711
72	0x3f088062	0.53320897
73	0xbe7ebf90	-0.24877763
74	0xbf1a68d6	-0.60316217
75	0x3e34c075	0.17651542
76	0x3e9f76fb	0.31145462
77	0x3f6f0ed6	0.9338201
78	0x3fc2b6a9	1.5211993
79	0xc007986f	-2.1186788
80	0x3fa6d62c	1.303411
81	0x3f3f5279	0.7473522
82	0x3fda8194	1.7070794
83	0xc00c2a51	-2.1900828
84	0x3e8b0569	0.27152565
85	0x3dbb2c29	0.09139282
86	0x3dd04247	0.101688914
87	0x39340463	0.00017167772
88	0xbdba746b	-0.09104236
89	0x3e8aecf7	0.27133915
90	0xbdfecb27	-0.12441092
91	0x3f0eb62e	0.55746734
92	0xbf30a7ce	-0.6900605
93	0xbdeee5d5	-0.11664931
94	0xbec9b0b5	-0.3939263
95	0x3eebbf4f	0.46044394
96	0xbf15a361	-0.5845242
97	0x3dc42809	0.095779486
98	0x3ee4393f	0.44574925
99	0x3f04c1cc	0.5185821
100	0xbefddc0b	-0.49581942
101	0x3f9eea6a	1.2415287
102	0x3e76deef	0.2410848
103	0xbf917070	-1.1362438
104	0x3f176d21	0.5915089
105	0xbe9f7241	-0.31141856
106	0x3edb3cc9	0.42819813
107	0x3d44baa3	0.048029553
108	0x3c60dd46	0.013724631
109	0x3cdda95c	0.027058296
110	0x3ed10fe2	0.4083243
111	0xbddf7978	-0.1091184
112	0x3fc82a57	1.5637921
113	0xbfc0973a	-1.5046151
114	0x3f71caab	0.9444987
115	0x400ea322	2.2287068
116	0x3fb4e363	1.4131893
117	0xbfccc2e9	-1.5996982
118	0x3f50372d	0.8133419
119	0xbeb47c25	-0.35250965
120	0x3e436cfe	0.19084546
121	0xbe3dcafe	-0.18534467
122	0xbd35525f	-0.04426801
123	0xbd83d751	-0.06437553
124	0x3eb10a12	0.34577996
125	0xbecdb325	-0.4017574
126	0xbfcd0408	-1.6016855
127	0xbe2cdb2d	-0.16880484
128	0x3d8225f1	0.06354893
129	0xbdc5db9e	-0.09661029
130	0x3f9e4a01	1.2366334
131	0xbe8f8b88	-0.2803614
132	0x3ce3b24d	0.027794981
133	0xbf7f3e04	-0.99704003
134	0x3da8b64a	0.08237894
135	0xbfad466f	-1.353712
136	0xbf5c515a	-0.8606163
137	0x3f877cfe	1.058502
138	0x3dc37db3	0.095454596
139	0x3f0dd9d0	0.5541048
140	0xbe957426	-0.29190177
141	0xbea382a8	-0.3193562
142	0xbc92c784	-0.017917402
143	0x3ef0c2a5	0.47023502
144	0xbe97f258	-0.2967708
145	0x3e0b9e11	0.13634516
146	0xbe6faba7	-0.23405324
147	0xbe9ef696	-0.31047505
148	0x3ebf262f	0.3733382
149	0xbd71aa17	-0.0590001
150	0x3c83b7e5	0.016078899
151	0x3db5b7d6	0.088729545
152	0x3ef2db63	0.47433004
153	0xbed789b0	-0.42097235
154	0xbed6ddd8	-0.41966128
155	0x3e88ad87	0.2669489
156	0xbea896b7	-0.32927486
157	0x3e72bb4c	0.2370426
158	0xbd707cae	-0.058712654
159	0x3d150fea	0.03639213
160	0x3e29a8e1	0.16568328
161	0xbe1843cf	-0.14869617
162	0xbd5e52ba	-0.054278113
163	0xbe20f8f0	-0.15719962
164	0x3e4805a5	0.19533403
165	0x3e9831dc	0.2972554
166	0xbe80391d	-0.25043574
167	0x3cb4a0a3	0.022049254
168	0x3faa248e	1.3292406
169	0x3e93e556	0.28885907
170	0xbfade6ff	-1.358612
171	0xbf7fc1e6	-0.9990524
172	0xbf8e9ef4	-1.1142259
173	0x3c9157f1	0.017742129
174	0x3ec4e43a	0.38455373
175	0xbdb5445d	-0.0885093
176	0xbe60cbc7	-0.21952735
177	0xbf126f3e	-0.5720099
178	0x3f7a068b	0.97666234
179	0x3c756e6d	0.014979941
180	0xbe98d06a	-0.29846507
181	0xbef28112	-0.47364098
182	0x3e572242	0.21009162
183	0xbe9c9a18	-0.30586314
184	0xbf0ce9b7	-0.5504412
185	0x3ee1ec0a	0.44125396
186	0x3ec02497	0.37527916
187	0xbf0a70bd	-0.54078275
188	0xbefe164a	-0.4962638
189	0x3eb47d0f	0.35251662
190	0xbea2dad3	-0.31807575
191	0xbe22e03c	-0.15905851
192	0x3e8401bb	0.2578257
193	0xbe24692f	-0.1605575
194	0x3d9dd352	0.07706322
195	0x3edf5d38	0.43625808
196	0x3e3e0443	0.18556313
197	0x3e97c3e7	0.2964165
198	0xbe13365c	-0.14376205
199	0x3d68d8ca	0.05684737
200	0x3ddf34e0	0.10898757
201	0x3ea70fb7	0.32629177
202	0xbe55dbfc	-0.20884699
203	0xbec070f6	-0.37586182
204	0x3d064af0	0.03278631
205	0xbef6bc78	-0.48190665
206	0x3c3da88b	0.011575828
207	0x3f0871f5	0.53298885
208	0x3f2ce862	0.6754209
209	0x3ec182a8	0.37794995
210	0xbf438fba	-0.76391184
211	0x3f8536f2	1.0407393
212	0x3f3d1575	0.73860866
213	0x3f4721bc	0.7778585
214	0xbf30a3c4	-0.68999887
215	0x3f856ced	1.0423867
216	0xbe8e1a00	-0.2775421
217	0xbf07dfff	-0.53076166
218	0x3d8e1507	0.069376044
219	0xbcbbfb0c	-0.022946857
220	0xbd778bca	-0.060436048
221	0x3f2b9274	0.67020345
222	0x3e06eacc	0.13175505
223	0x3ea8f794	0.33001387
224	0xbf0e809e	-0.55665004
225	0xbe9e6152	-0.30933625
226	0xbe07406c	-0.13208169
227	0xbf410faa	-0.75414526
228	0xbebeede4	-0.3729087
229	0x3ee8a36c	0.4543718
230	0xbdd190fc	-0.10232732
231	0xbdd9540d	-0.106117345
232	0x3cfc36c1	0.030787827
233	0x3df830d4	0.12118688
234	0xbe3e0db4	-0.18559915
235	0x3d77c822	0.060493596
236	0xbdb38ff1	-0.08767689
237	0x3d4d4e90	0.05012375
238	0xbbd951e2	-0.0066320756
239	0xbdac6598	-0.08417815
240	0x3ef6d741	0.482111
241	0xbe721396	-0.23640284
242	0x3ea4fa2e	0.32222122
243	0xbd908250	-0.07056105
244	0x3e44c0c7	0.19214164
245	0x3f80b85f	1.0056266
246	0x3e94f444	0.2909261
247	0x3f88e089	1.0693523
248	0xbfa5caa7	-1.295247
249	0x3f2d9fd6	0.67822015
250	0x3f3a363a	0.72738993
251	0x3f9806b7	1.1877049
252	0xbf8dedf5	-1.1088244
253	0xc00e9695	-2.2279408
254	0x3fa50d38	1.2894659
255	0x401d74af	2.4602468

sequential/dense/MatMul_bias f4 [64]
0	0xbefa1ab5	-0.488485
1	0x3d274177	0.040833917
2	0x3f0cb1a5	0.54958564
3	0xbddcb2b6	-0.10776274
4	0x3f854d56	1.0414226
5	0xbea0a257	-0.31373855
6	0xbe18d103	-0.14923482
7	0xbe4e8ea4	-0.201716
8	0xbe874c8b	-0.26425585
9	0x3eaafdf3	0.33396873
10	0x3f072a3e	0.5279883
11	0x3de8689e	0.11348079
12	0x3e6f2e67	0.23357545
13	0x3d81df46	0.06341414
14	0x3e0a35bb	0.13497059
15	0xbedb944d	-0.42886582
16	0xbecdb424	-0.401765
17	0xbe99e950	-0.30060816
18	0xbf2f06ab	-0.6836955
19	0x3e5c574a	0.21517673
20	0x3e8e8181	0.2783318
21	0x3df40430	0.11914861
22	0x3ec05a7f	0.37569043
23	0x3e9c1d57	0.30491135
24	0x3e875fcd	0.26440278
25	0x3e87a8a4	0.2649585
26	0x3dc14ef8	0.0943889
27	0x3f1a431e	0.6025866
28	0xbea6f5d5	-0.3260943
29	0x3efc6cd9	0.49301794
30	0xbf146f68	-0.5798249
31	0x3f1e828e	0.6191796
32	0xbe1c48fe	-0.1526222
33	0xbe75dbbe	-0.24009606
34	0xbe06063e	-0.13088319
35	0xbe38b655	-0.18038304
36	0x3f05531b	0.52079934
37	0x3ecf01aa	0.40430957
38	0x3e592ec2	0.21209243
39	0xbd2fad62	-0.04288996
40	0x3e7c2cfe	0.24626538
41	0xbecda56b	-0.40165266
42	0xbf05be66	-0.5224365
43	0xbf357b0b	-0.70890874
44	0xbdcf2779	-0.10114951
45	0x3e7ea46c	0.2486741
46	0x3f0622dd	0.5239695
47	0x3eb7ab3b	0.35872826
48	0x3e8f45db	0.27982983
49	0xbf3a6ede	-0.7282542
50	0x3f483808	0.78210497
51	0x3e09e195	0.13464959
52	0x3f106b7b	0.56414
53	0xbe8abecb	-0.27098688
54	0xbf01905a	-0.5061089
55	0x3e643ca0	0.22288752
56	0xbd89754b	-0.06711825
57	0xbd67899f	-0.05652773
58	0x3f00b511	0.50276285
59	0x3eafeaae	0.34358734
60	0xbe6caaba	-0.23112002
61	0x3d745be9	0.059657965
62	0xbee7b3fc	-0.45254505
63	0xbefe7e9f	-0.4970598

sequential/dense_1/MatMul/ReadVariableOp/resource/transpose f4 [4, 64]
0	0x3f0c40bb	0.5478627
1	0xbf861716	-1.0475795
2	0x3f5bf35f	0.8591823
3	0x3f742adb	0.9537789
4	0xc03c7aca	-2.9449944
5	0xbe71d31c	-0.23615688
6	0xbf0e8783	-0.55675524
7	0xbf5c0b45	-0.85954696
8	0x3e39b23b	0.18134396
9	0xbf1ec544	-0.62019753
10	0x3ed952c4	0.42445958
11	0x3fce081a	1.6096222
12	0x3e876a50	0.26448298
13	0xbe8a10be	-0.26965898
14	0x3e8fc3d5	0.28079095
15	0xbe8b9705	-0.27263656
16	0x3ff4e977	1.9133748
17	0xbe94157c	-0.2892264
18	0xbe28a3bc	-0.1646871
19	0x3f4b9e1b	0.79538125
20	0x3e7e72ed	0.24848528
21	0x3e9cde51	0.30638364
22	0x3ec2a34c	0.3801521
23	0x3ea5092d	0.32233563
24	0x3f93848a	1.1524823
25	0x3f2021ff	0.62551874
26	0x3f29ad3e	0.6627997
27	0xbdd80752	-0.10548271
28	0xbe1bf637	-0.15230642
29	0x3c8aed0a	0.016958732
30	0xbe1d7625	-0.153771
31	0x3d21d961	0.03951395
32	0xbc082a25	-0.008310829
33	0xbc27182d	-0.010198635
34	0xbeee818b	-0.46583208
35	0x3f350850	0.7071581
36	0xbfb7b3a6	-1.4351699
37	0x3f0ec335	0.5576661
38	0x3f32cd69	0.6984468
39	0xbfae0529	-1.3595325
40	0x3f975f5c	1.1825976
41	0xbe820fe2	-0.25402743
42	0x3e46ead2	0.19425514
43	0xbe86506b	-0.2623323
44	0xbf68db5b	-0.9095971
45	0x3eea989d	0.4581956
46	0x3dd39081	0.10330296
47	0x3f4cf142	0.8005563
48	0x3ed14522	0.40873057
49	0x3e0badb0	0.13640475
50	0x3e3651a0	0.17804575
51	0x3e9f9312	0.31166893
52	0x3e45d3bf	0.19319056
53	0x3d85c795	0.06532208
54	0x3eece6c2	0.46269804
55	0x3e3fc6e8	0.1872822
56	0xbec9205d	-0.39282504
57	0x3ee4a11d	0.4465417
58	0x3ecc9ac8	0.3996184
59	0xbf45b67f	-0.7723159
60	0xbe586cd8	-0.2113527
61	0x3f114d24	0.5675833
62	0xbedaabca	-0.4270919
63	0x3f44a833	0.7681915
64	0x3f1488c0	0.58021164
65	0x3f38291c	0.7193773
66	0xbf1a7d04	-0.6034701
67	0xbf80208a	-1.000993
68	0x403c1e78	2.9393597
69	0x3d8acd35	0.067774214
70	0x3eda761b	0.42668232
71	0x3f85819d	1.043018
72	0x3e907a1d	0.28218165
73	0xbf888435	-1.0665346
74	0x3ea1a89b	0.31573948
75	0xbfcec4ab	-1.6153768
76	0xbdf3c34a	-0.11902483
77	0x3f0c90c2	0.5490838
78	0x3f344463	0.7041685
79	0xbec8085f	-0.39068887
80	0xbfa3bdd3	-1.2792305
81	0xbec61a5f	-0.38691995
82	0xbdb5fdd7	-0.08886307
83	0xbe64c3f7	-0.2234038
84	0xbda6a6bc	-0.08137271
85	0xbe9ba0c5	-0.30396095
86	0xbc624d70	-0.013812408
87	0xbc434236	-0.011917641
88	0xbec234f6	-0.3793103
89	0xbd6f61a6	-0.058442734
90	0xbe855d79	-0.26047876
91	0x3e70d50f	0.23518775
92	0xbe8008d3	-0.25006732
93	0xbd2491f6	-0.04017826
94	0xbf9e9fb7	-1.2392491
95	0x3edf11f2	0.4356838
96	0xbef6b0ee	-0.48181862
97	0xbd70d869	-0.058800135
98	0x3e8b7dee	0.27244514
99	0xbf34e7cf	-0.7066621
100	0xbfa1acc2	-1.2630847
101	0xbedf0375	-0.43557325
102	0xbf063427	-0.5242333
103	0x3f2d800b	0.67773503
104	0xbd5a6221	-0.05331624
105	0x3e6f797b	0.23386185
106	0x3e3bf49f	0.18355034
107	0xbe3e74f3	-0.185993
108	0x3f3118b8	0.6917834
109	0xbdd6cc0a	-0.10488136
110	0x3eb10b29	0.34578827
111	0xbf1478cd	-0.5799683
112	0xbebe1e38	-0.3713243
113	0xbf0f98de	-0.5609263
114	0x3ed915be	0.423994
115	0xbeb4bead	-0.35301724
116	0x3e8f2346	0.279566
117	0x3f30ba24	0.6903403
118	0xbf1c3cbb	-0.6103017
119	0x3e27b9a0	0.16379404
120	0x3ef94325	0.4868404
121	0xbf24f0a4	-0.6442969
122	0x3e68ca51	0.22733428
123	0xbf85e4ed	-1.0460488
124	0xbf32599d	-0.6966799
125	0xbf0ad1f0	-0.5422659
126	0x3e6dc022	0.23217824
127	0x3f940cfa	1.156646
128	0xbfc11ff7	-1.508788
129	0x3f9e9cae	1.2391565
130	0xbf21a1f9	-0.63137776
131	0xbf8df447	-1.1090173
132	0xbf8db614	-1.1071191
133	0xbe1756b8	-0.14779174
134	0x3eb9855c	0.36234558
135	0xbe0ff5fe	-0.14058682
136	0xbed393fd	-0.41323844
137	0x40263d9f	2.597511
138	0xbe4cc774	-0.1999796
139	0xbf910a13	-1.13312
140	0x3d826dc6	0.06368594
141	0xbf23cfc3	-0.63988894
142	0xbf445295	-0.7668851
143	0x3ed6d485	0.41959015
144	0xbf83b0be	-1.0288312
145	0x3eafbe07	0.34324667
146	0xbe57432d	-0.2102172
147	0xbf8bfd94	-1.0936761
148	0xbe9715db	-0.29508862
149	0x3f082600	0.53182983
150	0x3e568fe2	0.20953324
151	0xbd9cb083	-0.076508544
152	0xbfa54361	-1.2911187
153	0xbf382aa8	-0.7194009
154	0xbf0cf6ee	-0.55064285
155	0xbe99dc37	-0.30050823
156	0x3e9a8f8e	0.3018765
157	0x3ec67d80	0.38767624
158	0x3f4e6bcf	0.8063325
159	0x3e5fa267	0.21839295
160	0x3ea5b318	0.323632
161	0x3e018e86	0.12652025
162	0x3a16a71e	0.00057469483
163	0xbf1b127a	-0.6057507
164	0x400d6f12	2.2099042
165	0xbd04a9d1	-0.032388512
166	0xbe963182	-0.29334646
167	0x3fbd9fcb	1.481439
168	0xbf89627b	-1.0733179
169	0xbf6d709e	-0.92749965
170	0xbf8ddc51	-1.108286
171	0xbd3075a3	-0.043080937
172	0x3ef70b96	0.48251027
173	0x3d90f941	0.070787914
174	0xbe6bdad4	-0.23032695
175	0xbf3d5758	-0.739614
176	0xbecd4d63	-0.40098104
177	0xbf11e608	-0.56991625
178	0x3eb75817	0.35809395
179	0x3e2c7759	0.16842403
180	0x3eb6e709	0.3572314
181	0xbf8e6620	-1.1124916
182	0xbe319f9c	-0.17346042
183	0xbf92c34d	-1.1465851
184	0xbebafdbf	-0.36521718
185	0xbdb7c77e	-0.08973597
186	0x3e87f55c	0.26554382
187	0x3fa8cf2b	1.3188223
188	0xbddcb524	-0.10776737
189	0xbf38f8b4	-0.7225449
190	0x3db3feed	0.087888576
191	0xbffc09b9	-1.9690467
192	0x3ece2a38	0.40266585
193	0xbf654ae9	-0.8956743
194	0xbeb2a9f9	-0.34895304
195	0x3fa44739	1.2834235
196	0x40200904	2.5005503
197	0x3f0c2492	0.547433
198	0xbb20a818	-0.0024514254
199	0x3f19f43f	0.60138315
200	0x3f112642	0.56699
201	0x3f6278d3	0.88465613
202	0xbf7739a3	-0.9657232
203	0x3f993e59	1.1972152
204	0xbeb5b926	-0.3549282
205	0xbea24472	-0.31692845
206	0xbf090090	-0.53516483
207	0x3f1f8d43	0.62324923
208	0x3f72b96f	0.948142
209	0x3e1e92d8	0.15485704
210	0x3faa9455	1.3326517
211	0x3f084169	0.5322481
212	0xbef47be5	-0.47750774
213	0xbe01335e	-0.12617251
214	0xbf1d24c0	-0.613842
215	0xbf292e0a	-0.66085875
216	0x3ee5f4c4	0.44913304
217	0xbcb8e068	-0.022567943
218	0xbe8e9762	-0.2784987
219	0xbf74a014	-0.9555676
220	0x3f17e6f8	0.59336805
221	0xbf59c0df	-0.8505992
222	0x3f9dc567	1.2325867
223	0xbfbe78a2	-1.4880564
224	0x3de9392f	0.1138786
225	0x3ecd1610	0.40055895
226	0xbbac38c1	-0.005255789
227	0x3fa2611b	1.2685884
228	0x400e6224	2.22474
229	0xbec4ffa2	-0.38476282
230	0x3f351ce7	0.70747226
231	0xbf614730	-0.8799925
232	0xbd2119eb	-0.039331358
233	0x3f84db02	1.0379336
234	0x3f591004	0.8479006
235	0x3f8c17f0	1.0944805
236	0xbf88f865	-1.0700804
237	0xbe6e8318	-0.23292196
238	0xbf822d7b	-1.017013
239	0xbe845076	-0.25842637
240	0xb9c77d6f	-0.00038049693
241	0x3f85e390	1.0460072
242	0xbfd6d2fd	-1.6783139
243	0xbe20d4da	-0.15706196
244	0xbfa8d4e3	-1.3189968
245	0x3d168ad3	0.036753487
246	0x3fbf96ba	1.4967873
247	0x3f3e05cc	0.74227595
248	0xbed9785d	-0.42474642
249	0x3f8fd9c2	1.123833
250	0xbf4b1823	-0.79333705
251	0x401547a9	2.3324988
252	0x3f88af33	1.0678467
253	0xbe9fa7f4	-0.31182826
254	0x3f8a2b39	1.079444
255	0xbf975428	-1.1822557

sequential/dense_1/MatMul_bias f4 [4]
0	0x3e192bff	0.1495819
1	0x3e065059	0.13116588
2	0xbd13a035	-0.036041457
3	0xbf1060fb	-0.5639798
